RNN-h128-l1-v00-checkpoint-100000.pth.tar (torch, 342263 bytes, 12 tensors)

embed.weight f4 [36, 128]
000000 6d 1a 9e 3d 0f 6a 12 bf 4e 9f 05 bf 82 52 a1 3f
       0.07719884 -0.5719308 -0.52196205 1.2603304
000010 0c 0b 3f bf d9 ff cc 3e 8f 1c 8c bf a6 ba 12 3e
       -0.7462623 0.40038946 -1.0946215 0.14329013
000020 8e 1b 7b bf 4c 12 5e bf 3d 08 cc 3f e4 d2 a3 3f
       -0.9808892 -0.8674667 1.5940014 1.2798734
000030 42 c4 13 3f 65 6e 18 40 6a 91 a3 3d 87 13 61 3f
       0.5772134 2.381738 0.0798672 0.8792042
000040 8c 34 e3 bf c2 d5 af be 1b a7 67 bf 4f 42 8f be
       -1.7750411 -0.34342772 -0.9048936 -0.27980277
000050 03 a9 0c 3f 70 8b 3b 40 af bc 4b bf 4f e5 12 40
       0.5494539 2.9303856 -0.79584783 2.295246
000060 54 43 d3 bf 86 13 bd bf 79 60 47 c0 7d 96 97 3f
       -1.6504922 -1.4771583 -3.1152632 1.18428
000070 3b 08 55 3f 3a 16 91 3f 7f 38 78 3f 15 4e cc be
       0.83215684 1.1334908 0.96961206 -0.39903322
000080 7b 66 2e 40 4c 89 96 bf a1 c5 96 bf 53 b9 6f bf
       2.725005 -1.176065 -1.1779062 -0.9364216
000090 f1 b3 6f bd 11 5d 86 3f eb ba 87 3f 11 56 8f bf
       -0.058521215 1.0497152 1.0603918 -1.119814
0000a0 11 8d 4f 40 b2 ca 0d 3f c1 8d 4a 3f fd 34 1c 3f
       3.242985 0.55387414 0.7912255 0.61018354
0000b0 76 0d 2b bf 5c f9 f0 3f e8 58 44 bf e1 3f af 3f
       -0.66817415 1.8826098 -0.7669816 1.3691369
0000c0 ef df f7 be a2 1b 95 3f da 1d 4b 40 ce 95 c7 be
       -0.48413035 1.1649058 3.173697 -0.3898148
0000d0 b2 b1 91 3f 06 fa 6c bf 78 8e 7e 3f 91 62 0d bf
       1.1382353 -0.92569005 0.9943614 -0.55228525
0000e0 f8 aa a5 3f 4c 18 32 c0 51 c2 fb bf dd 58 db 3e
       1.29428 -2.782733 -1.9668676 0.42841235
0000f0 13 fc 37 3f 22 b2 a4 3e 67 33 14 c0 cb cb ab 3f
       0.7186901 0.32167155 -2.3156374 1.3421568
000100 79 79 c0 bf a5 7e d4 3f 9c 64 6f 3f fb 19 c5 3d
       -1.503707 1.6601149 0.9351289 0.09624096
000110 fe 64 40 c0 ea 2a 15 c0 5b 45 83 c0 2b ab 02 3f
       -3.006164 -2.3307443 -4.1022162 0.5104243
000120 d7 e8 04 3d f7 d7 44 3c be 16 1c 40 3f c3 53 3f
       0.032448616 0.012014381 2.438888 0.82719797
000130 75 60 34 bf 00 b1 a9 bf 75 4a 4e 3f 4d b7 9f 3f
       -0.7045968 -1.3257141 0.8058236 1.2477814
000140 e4 74 6b 3f 41 93 82 3e 6a b8 4c bf f8 44 38 3f
       0.91975236 0.2550297 -0.79968894 0.7198024
000150 46 e5 e3 bf 64 ca bc bf ef 95 b5 3e 17 da 36 bf
       -1.7804344 -1.4749265 0.35465953 -0.7142653
000160 73 14 df bf 96 57 aa be a4 6c 53 3e 56 47 9b be
       -1.7428116 -0.33269948 0.20646912 -0.30327863
000170 10 ea e4 bf b3 ff 8d bf d8 51 d9 3f af ff 0f bf
       -1.788393 -1.1093658 1.6978102 -0.5624952
000180 29 2a 06 40 13 87 4e be 77 c1 ba 3e 99 f9 27 bf
       2.0963233 -0.20168714 0.36475727 -0.6561523
000190 ca e6 94 40 00 e8 89 bf 9d 0d 9f 3f 26 1c 27 3d
       4.6531725 -1.0773926 1.242603 0.04079833
0001a0 e5 43 df bd ab f2 35 3d 7c bd 9c bf 68 59 4a 3f
       -0.10901622 0.04442088 -1.2245326 0.79042673
0001b0 1a 9e 39 c0 ca b7 82 bf 18 3d 31 c0 dd e4 09 be
       -2.9002748 -1.0212338 -2.7693539 -0.1346621
0001c0 74 77 f2 be 28 6f aa 3f d7 8f b6 bf 94 c6 0c 40
       -0.4735676 1.3315172 -1.4262646 2.1996202
0001d0 cb b5 12 3f 07 fd 58 3f ac 0a 37 bf 69 42 52 bc
       0.57308644 0.8476109 -0.7150066 -0.012833216
0001e0 49 a3 32 bf 56 ab e3 bf b0 58 72 3f 3e 2f f9 3e
       -0.69780403 -1.7786663 0.94666576 0.48668855
0001f0 0f 94 9b be 40 ba d1 bf 05 ad 7a bf 64 1e e6 3e
       -0.30386397 -1.6384964 -0.97920257 0.4494506
000200 51 f9 b3 3f 6d f5 3d bd 7a 10 c6 bd 12 23 13 40
       1.406046 -0.046376634 -0.096711114 2.2990155
000210 7d 20 ec 3e e5 76 43 3f c3 bc 3d 40 5c 0d 49 bf
       0.46118537 0.76353294 2.964646 -0.7853601
000220 17 e6 43 3f e6 be 45 40 4f d3 7f bf 66 93 58 3f
       0.76522964 3.0897765 -0.99931806 0.8459991
000230 fa aa bb 3d 51 f8 15 be 86 d1 41 3e e4 e2 10 bf
       0.091634706 -0.14645506 0.18927583 -0.5659621
000240 d1 6d e0 3e b3 aa a5 be 27 50 0a c0 fc 3f 72 bf
       0.43833783 -0.32356796 -2.161142 -0.9462888
000250 61 33 ce 3e 95 de de 3e 15 1a 53 3f 4a 92 9f 3f
       0.40273574 0.43529192 0.82461673 1.2466519
000260 d5 c6 75 3f ea 32 20 bf 15 19 00 40 1c 94 ea bf
       0.9600652 -0.6257769 2.001531 -1.8326449
000270 db 45 ba 3f bb 11 a1 bf 90 d7 4b be 3b a5 54 be
       1.4552568 -1.2583536 -0.1990645 -0.20766155
000280 d1 40 c7 3e 22 23 3b bf 00 3d 4a 3f f2 00 80 3f
       0.38916638 -0.73100483 0.7899933 1.0000288
000290 2f 1b 94 3f 1b 6d bc be 87 7c 3b 3e c0 7b bf bf
       1.1570796 -0.3680199 0.18309222 -1.495964
0002a0 93 61 23 3f 17 02 b2 be 26 96 79 3f 7a c5 42 be
       0.6382076 -0.3476722 0.97494733 -0.19020644
0002b0 db f7 f1 be c1 a9 30 bf 1b 18 38 bd 51 43 3d 3f
       -0.4725941 -0.69009024 -0.044944864 0.7393084
0002c0 0a 6d 42 be ae 7b 21 3e 07 26 02 bf 8f b3 f3 3f
       -0.18986908 0.15769836 -0.50839275 1.9039172
0002d0 5a 00 b0 3e 4d 5a 46 3e dd d8 b7 3d c3 9f 28 c0
       0.34375268 0.19370385 0.0897691 -2.634751
0002e0 53 31 dd 3f 10 7e 5c 3f 55 cc b9 be 50 f7 34 c0
       1.7280678 0.86129856 -0.36288705 -2.8275948
0002f0 6b 0e 8a 3f c1 34 8a bf ce a7 07 c0 0b 25 f2 be
       1.078565 -1.0797349 -2.119617 -0.47293887
000300 b5 5b 3a c0 56 fa 86 3f b3 17 34 3f b6 50 43 3f
       -2.9118474 1.0545146 0.7034866 0.7629503
000310 7f 64 01 40 74 da 0f bd 61 be 4c 3f 08 e0 52 bf
       2.0217588 -0.035120443 0.79977995 -0.82373095
000320 5b 48 86 3f 66 d3 80 bd d2 99 34 c0 f7 d4 83 3f
       1.0490831 -0.06290321 -2.8218884 1.0299367
000330 2b bc 6b 3f 18 6a 00 bf 7d cb c4 be 11 3d 38 bf
       0.92083997 -0.50161886 -0.384365 -0.7196818
000340 de a7 91 bf 65 6a 02 bf e6 8f 19 bf 8f b7 dc 3d
       -1.1379354 -0.50943595 -0.59985197 0.107771985
000350 87 62 ac bf 47 0e 10 40 64 4b 11 3e 99 c6 9c be
       -1.3467568 2.2508714 0.14188915 -0.30620268
000360 8d 40 09 40 49 4d fc 3d 3f f3 e8 3d a0 ea 14 40
       2.1445649 0.123194285 0.113745205 2.3268204
000370 87 23 8e 3f 0d 63 0e 3f f6 92 60 bf ae a1 5e bf
       1.1104592 0.5561989 -0.87724245 -0.86965454
000380 08 f8 59 bd a2 fa 8e 3f 2b 3d 9c be 3a d4 af bf
       -0.053215057 1.1170237 -0.30515417 -1.3736641
000390 e6 f5 b4 3c a7 47 a5 be a8 8f 5c 3c 1f 6c a3 bd
       0.02208991 -0.3228123 0.013461985 -0.07979607
0003a0 a2 d2 6d bf a1 54 ce 3f 23 c1 7d bf f1 ae b8 3f
       -0.92899525 1.6119577 -0.9912283 1.4428388
0003b0 93 26 87 bf 25 5e ad 3f c3 ad 3d 3f a5 0b fc 3e
       -1.0558647 1.3544356 0.74093264 0.49227634
0003c0 82 b1 ce 3f d8 ec b5 3f 3e 18 9c 3e 72 2b 5a bf
       1.6147921 1.4212904 0.30487245 -0.8522254
0003d0 e1 7a 2a 3f d0 fa 47 3f 64 4f 96 3e 66 93 5b bf
       0.6659375 0.78117085 0.29357445 -0.8577179
0003e0 52 44 36 40 98 40 39 be 23 9b f0 3e c3 cf a4 bf
       2.84792 -0.18091047 0.4699336 -1.2875904
0003f0 9c 9c 24 bf 42 05 a4 3f 04 be ab 3e b7 15 cb 3e
       -0.64301467 1.2814105 0.33543408 0.39665005

rec.weight_ih_l0 f4 [128, 128]
000000 3a 36 c4 3e 7b 03 68 3f 4a 59 e6 3c dc 57 b1 3e
       0.38322622 0.9063031 0.028118748 0.34637344
000010 2c 2f 4d be b4 95 09 3f 62 cc 27 3d 46 31 0a be
       -0.20037526 0.53744054 0.0409664 -0.13495359
000020 96 3d 6d 3f 20 32 4b 3f ae bf 99 be 47 65 dd 3d
       0.926721 0.7937336 -0.30029052 0.10810333
000030 84 7c 82 bf ba bc 95 3e c1 6a 3c bd 17 7d 0f be
       -1.0194249 0.2924555 -0.046000246 -0.14012562
000040 d8 9f 3d bf b5 b7 b3 3d b7 1d 2b bf e0 81 e7 be
       -0.7407203 0.08775274 -0.66842216 -0.45216274
000050 5d 42 4a 3e 02 ec 9a 3e 12 7a 26 be 85 1d 96 be
       0.19751878 0.30258185 -0.16257504 -0.29319397
000060 6c 94 1c 3f c5 05 c3 be 36 6e 08 be 26 16 72 3e
       0.61163974 -0.3809034 -0.13323292 0.23641261
000070 7d 8e 92 3e f0 f6 27 be cb cb 2c 3e 56 9a 2f be
       0.28624335 -0.16402793 0.16874616 -0.17148718
000080 c2 18 a0 bc 95 29 bb bd 8f 10 b7 3e 06 1a 66 3e
       -0.019543055 -0.091387905 0.3575482 0.22470865
000090 ba ae d6 3e 24 01 f5 3d 20 a5 6c 3e f7 ff 0b bf
       0.4193018 0.11963108 0.23109865 -0.54687446
0000a0 0d 12 1e 3f b1 59 42 3e b0 80 de 3d da 1b 25 3f
       0.61746293 0.18979527 0.10864389 0.64495623
0000b0 cf 12 42 bf bd bd 21 3d e1 4c 01 3c d9 35 9e 3e
       -0.7580995 0.03948759 0.0078918645 0.30900458
0000c0 83 00 ed 3d 74 40 00 bf 72 9e 97 3c 8e 88 0a 3f
       0.11572363 -0.5009835 0.01850817 0.54114616
0000d0 da 73 a7 be 67 57 a2 bd 02 72 86 bd 34 e8 25 3e
       -0.32705575 -0.07926827 -0.06564714 0.1620186
0000e0 74 9a 25 bd ba 2f 56 bd 69 43 30 3f 91 10 20 be
       -0.0404305 -0.05229161 0.6885286 -0.1563132
0000f0 56 f5 56 3f aa 32 85 be e8 c0 73 be 05 ff 9c bd
       0.839681 -0.26015216 -0.23804057 -0.076658286
000100 2b 92 3f 3e 32 a0 66 3e aa 77 6d 3e 5e 37 d2 3e
       0.18708102 0.22522047 0.2319018 0.41057867
000110 e1 32 a5 3e 20 fd 06 bf a4 07 52 3e f9 83 29 bf
       0.3226538 -0.5272999 0.20510727 -0.66217
000120 21 96 01 3e b6 a0 c0 3e 4f 7a a6 be 3f a9 c7 be
       0.12654926 0.37622613 -0.3251519 -0.38996312
000130 0c b1 95 3c 43 61 dd be 27 fe 12 3f 88 fb 83 be
       0.0182729 -0.43238267 0.57419056 -0.2577784
000140 57 a2 04 bf fb 59 80 bc 08 fa d5 be d0 33 23 bd
       -0.5181021 -0.015667906 -0.4179232 -0.039844334
000150 f3 b9 20 bf 89 e9 15 3d ef d5 92 3e 72 f5 ce 3e
       -0.62783736 0.03659967 0.28678843 0.40421635
000160 17 58 ce be ae 2b 4c be 15 f5 28 3f 1b fc ec bd
       -0.40301582 -0.19938537 0.65998966 -0.11571523
000170 df 11 15 bf 94 15 58 3f ba c2 d1 be 2a e8 04 bf
       -0.58230394 0.84407926 -0.40968877 -0.51916754
000180 45 ad 82 3e c7 e5 73 3e b7 da ce 3e 22 b9 09 bf
       0.2552282 0.23818122 0.4040124 -0.53798115
000190 0b 8a 6c be ff f2 47 bb e6 95 e1 3e c7 ac ed 3c
       -0.23099534 -0.0030509827 0.44059676 0.02901305
0001a0 ff 22 9a be 21 10 7b 3e c1 7b 19 be 67 b1 0b be
       -0.30104825 0.24517871 -0.14988615 -0.13641892
0001b0 20 27 36 be 41 96 24 3f f5 31 13 3c 40 3a 2a be
       -0.17788363 0.6429177 0.008984079 -0.16623783
0001c0 80 45 25 be bb 94 ca be b4 7e 1e bd f5 4e 12 3f
       -0.16139793 -0.39566597 -0.038695052 0.5715173
0001d0 20 3d d6 3e 49 3b 09 3d c9 3b 39 be 5d ce d9 be
       0.4184351 0.033503804 -0.18089212 -0.42540255
0001e0 3f 89 b2 3d 20 8b 04 3f 41 5e 53 be bb 57 6e be
       0.08717584 0.5177479 -0.20641424 -0.23275654
0001f0 9f 6d c9 be 29 35 26 3f 9e cf 4a bf 9e 8a c0 be
       -0.39341447 0.64924866 -0.7922305 -0.37605757
000200 14 50 9c bd 5d 59 6c 3f 21 90 0f bd 92 26 98 be
       -0.07632461 0.9232386 -0.03504956 -0.29716927
000210 fb dc c4 3c 2d 01 7f 3f 47 83 b8 3e ba 70 62 be
       0.024031153 0.9961117 0.36037657 -0.22113314
000220 75 e4 b8 be 98 d9 15 3f 8f 1e 85 bd 9a c6 8f be
       -0.361118 0.58535147 -0.06499969 -0.28081208
000230 62 5e 3e be af 05 d1 3d 3e 09 14 3e 10 63 26 bf
       -0.18590692 0.10206162 0.1445665 -0.6499491
000240 ee 03 cf 3e d0 f6 a5 3d f4 b8 35 be fb da 90 3c
       0.40432686 0.081037164 -0.17746335 0.017682543
000250 c5 87 6a 3f 56 cc 46 bf 29 cb 99 3e 60 cd 0d 3e
       0.9161342 -0.7765554 0.3003781 0.13847876
000260 e5 40 17 bf 2c 4b 69 bc d6 88 0b bf b4 8b 9b be
       -0.59083396 -0.014239114 -0.5450567 -0.30380023
000270 5e d1 3f 3e 4a 73 09 bf 89 4d 82 3f 17 c8 99 3e
       0.18732211 -0.5369154 1.0179912 0.3003547
000280 0c 88 8a 3f 70 6f 96 3d 2e 34 91 be 97 5c c6 be
       1.0822768 0.07345474 -0.28360122 -0.38742515
000290 cb 53 c7 be 17 8c d5 3e 69 75 07 3e 7b e4 2e bf
       -0.38931116 0.41708443 0.13228382 -0.68317384
0002a0 d0 10 12 3f 93 4b c1 3d 64 bd 6f 3d 36 3e 91 3e
       0.57056904 0.09438243 0.058530226 0.28367776
0002b0 17 bf 39 bf ce 9c 49 be 09 71 22 be 30 df 0c 3f
       -0.72557205 -0.19688722 -0.15863432 0.5502806
0002c0 42 92 ca be a8 71 4a bf 40 96 00 3f 50 18 1d 3f
       -0.3956471 -0.79079676 0.50229263 0.6136522
0002d0 6b 5c 05 3f de dd 25 bf 91 e5 21 3f 32 69 40 bb
       0.52094144 -0.6479167 0.63240916 -0.0029359576
0002e0 7e 2d 77 3f b1 86 f2 be ff 2a 52 be 3e d9 1d be
       0.9655379 -0.47368386 -0.20524214 -0.15414903
0002f0 1b 77 04 3f 5f 30 6b 3e 56 90 a4 3e 3c 76 c5 bd
       0.5174424 0.22967671 0.3214137 -0.09641692
000300 13 c0 43 3d 2c dd f2 3d 6d aa 72 bd 7f 85 a3 3d
       0.047790598 0.118585914 -0.059244562 0.07984447
000310 99 25 01 bf a2 0e 8d 3e be c2 08 bf 24 b9 c3 3c
       -0.50447994 0.27550226 -0.53422153 0.023891993
000320 d3 20 b5 3e 98 68 10 bb c0 d7 3a bf a3 b1 72 3f
       0.35376605 -0.0022035 -0.7298546 0.948023
000330 56 e4 8a 3e 04 00 12 bf 03 b6 18 bf 5f f4 86 3f
       0.27127331 -0.57031274 -0.5965273 1.0543326
000340 6e e7 39 be fa ba e4 3e d2 3b 7f 3d 7e bb 9f 3f
       -0.1815469 0.44673902 0.06231291 1.2479093
000350 49 56 4f bf 52 5f 1e 3f 2c c8 3d 3d 2a 87 05 3e
       -0.80991036 0.618642 0.046333477 0.13039842
000360 91 49 4b 3e 4e a4 ae bd f7 22 7e be fd 33 3d be
       0.19852282 -0.085274324 -0.24818026 -0.18476863
000370 ca ae 20 3e 7c 99 46 be 36 48 d5 3e c5 66 bc 3c
       0.15691677 -0.19394487 0.41656655 0.022998223
000380 f8 3e 2d 3f d6 13 34 bf 9c 39 b1 3e 50 71 47 bf
       0.6767421 -0.7034277 0.34614265 -0.77907276
000390 4d 25 9e 3e 59 5f 98 be b6 1d a6 be 78 3a 03 3f
       0.30887833 -0.29760244 -0.32444543 0.5126109
0003a0 19 12 45 3f 14 1f bb 3f c6 db 4a be db df bc 3e
       0.7698074 1.4618859 -0.198104 0.36889538
0003b0 13 f4 09 bf c5 27 3e be d7 88 87 be 89 88 14 3f
       -0.5388805 -0.18569858 -0.26471588 0.58020836
0003c0 54 ba 21 3f 18 ea 7f be 01 5f 80 bf 8c 25 63 3f
       0.6317494 -0.24991643 -1.0028993 0.88729167
0003d0 66 b0 63 be 79 d5 0f bf 82 73 5b 3f 6f 27 b6 3e
       -0.2223526 -0.5618511 0.85723126 0.3557696
0003e0 00 ce 24 3f 23 45 43 bf fa 48 cf 3d fc fe a8 be
       0.6437683 -0.7627737 0.10121341 -0.33007038
0003f0 e6 1d 9c bf a8 b5 d8 3e 50 f5 93 be 35 a6 22 b9
       -1.2196624 0.42326093 -0.28898096 -0.00015511441

rec.weight_hh_l0 f4 [128, 128]
000000 d6 22 a9 3f b8 96 98 3d a9 c1 24 3f 79 45 df 3c
       1.3213756 0.07450622 0.64358 0.027254807
000010 d2 31 a0 3e 79 9e 01 3e 5d ff 3f bd b2 67 58 be
       0.3128801 0.12658109 -0.046874393 -0.21133307
000020 be 6b 99 bf 57 bf c5 3e 8f e7 30 bf a9 91 49 3f
       -1.1986005 0.38622543 -0.6910333 0.78737885
000030 60 74 23 bd 72 64 2e 3e 48 ea b3 bf 4d f6 b2 3e
       -0.039905906 0.17030504 -1.4055872 0.34953538
000040 ee 89 45 3d 4f 66 4b 3e d2 2b b4 3f 51 4f e5 be
       0.048227243 0.19863246 1.4075873 -0.44787076
000050 59 a2 8a bd 08 1b 35 bf 53 8f 63 be 80 96 08 bf
       -0.067692466 -0.7074437 -0.22222643 -0.53354645
000060 0d eb 1a 3f 9f 8d 32 bf f1 21 24 3e 9f 26 7b bd
       0.6051491 -0.69747347 0.16028573 -0.06131613
000070 08 6a 40 3f a4 a2 d9 be 82 9d f6 3e ae f3 6b bf
       0.7516179 -0.42506897 0.48167044 -0.921687
000080 25 20 d5 be 51 39 34 3f 91 0c 85 3e a5 03 02 bf
       -0.41626087 0.7039996 0.2598615 -0.5078681
000090 6d 6f 80 bc 03 e2 89 be 6b 67 83 be 79 63 26 be
       -0.015678132 -0.26930246 -0.2566484 -0.16248883
0000a0 bb 7b 8b 3e 63 bf cc be 1e d7 a6 be ce 0a 76 3f
       0.27242836 -0.39989766 -0.32585996 0.96110237
0000b0 96 ce 1e 3f e6 f6 c0 be 54 bb 82 bf 07 8d 93 be
       0.62033975 -0.3768837 -1.0213418 -0.28818533
0000c0 55 4e 61 be 66 7d f5 be e3 72 16 bd de 7e 0a 3e
       -0.22002538 -0.47947234 -0.03673066 0.13524958
0000d0 30 cb 66 3e 18 a8 ad 3e 7c 66 94 3d 1a bb a8 bd
       0.22538447 0.33917308 0.0724611 -0.08238812
0000e0 c6 8f 8a 3e c3 8c 00 3f 2e d6 ed 3e bd 51 25 bf
       0.27062815 0.50214785 0.4645247 -0.6457785
0000f0 d6 0c cf be 3a eb 01 bf 82 d5 61 3e 14 0c a5 3e
       -0.4043948 -0.5074955 0.22054103 0.32235777
000100 3e c6 02 3e 04 d2 8e be 39 85 da be 8b 0c 70 3e
       0.12770936 -0.27894604 -0.42679766 0.23442285
000110 66 2d fc 3e f6 07 86 be 24 ff e7 bd c7 a0 98 be
       0.49253386 -0.2617795 -0.11327961 -0.29810163
000120 34 ce fb 3e 57 fc 69 bd 2b 43 11 3f d9 2e 44 3f
       0.49180758 -0.057125416 0.56743115 0.76633984
000130 4a b2 81 be d6 7d 9e 3c 66 e7 b3 be c9 90 49 bf
       -0.25331336 0.019347113 -0.3513748 -0.7873655
000140 5d 6e 46 bf 38 43 c0 3e f7 90 ea 3c 41 29 59 bf
       -0.7751215 0.37551284 0.028633578 -0.84828573
000150 95 04 a8 bd 0b 0a 91 be ae 14 36 bf fb 20 83 3d
       -0.08203999 -0.28327975 -0.71125305 0.06402775
000160 7a 1a 1f 3f 9d f8 2b bf e2 d0 6b be 98 2d 3b be
       0.62149775 -0.6717623 -0.23028901 -0.18279111
000170 34 1f 98 3f 01 1e 33 3f 08 da e6 be 0c fe 41 be
       1.1884522 0.6996766 -0.4508822 -0.18944567
000180 8c e5 dd bd 73 fe 20 bf 52 65 53 bd e3 f3 f7 3c
       -0.10834798 -0.6288826 -0.0516103 0.030267661
000190 a5 39 ba 3e 28 ed 83 bc 7e 07 ba 3f 15 59 cf be
       0.36372104 -0.016104296 1.4533536 -0.40497652
0001a0 24 54 10 bd e0 c1 c2 3d 28 d2 08 bf 3e d3 f3 bc
       -0.035236493 0.09509635 -0.53445673 -0.029763814
0001b0 00 4d 14 3f 5d 3c 04 be ae c9 01 bd ce 64 e4 3e
       0.5792999 -0.12913652 -0.031686477 0.44608158
0001c0 b5 51 a0 be 78 9d cb bc 51 21 29 3f f4 b9 c1 be
       -0.31312338 -0.02485536 0.6606646 -0.37837183
0001d0 cb b0 c3 3e 1a 95 2a 3f 69 02 03 3f d8 23 00 bd
       0.3822082 0.6663376 0.5117555 -0.031284183
0001e0 29 5d 30 3e 2f a0 36 3f 6d 3f a5 3e 2c 76 c7 3e
       0.17223038 0.7133817 0.32274953 0.38957345
0001f0 c3 80 1f 3e 1b d4 d4 be 26 d6 85 3e 78 97 77 3e
       0.15576462 -0.41568074 0.26139945 0.24178874
000200 e7 75 b0 be b3 f7 30 3f 05 48 f2 be e5 ac 8b 3e
       -0.34464952 0.6912796 -0.47320572 0.27280346
000210 82 4b 58 bf f8 3d 7a bf e8 f4 de be bf 0d eb 3e
       -0.84490216 -0.97750807 -0.43546224 0.45908925
000220 ce 1d 0a bf 8e a4 d0 bf b6 2c b0 bf 4a 98 ec 3e
       -0.5395173 -1.6300218 -1.3763645 0.46209937
000230 8f ce ec bf c1 31 ee 3e fa d5 17 bf 65 40 a6 bf
       -1.8500537 0.46522334 -0.5931088 -1.2988402
000240 cd c6 c9 be 9d 67 0f 3e 6d 13 a5 3e c0 c6 ae bf
       -0.39409485 0.14004369 0.32241383 -1.3654404
000250 af 8e e9 be ae b3 3f 3f cd 17 7a 3d 4d 56 15 3f
       -0.4561667 0.74883544 0.061057854 0.5833481
000260 ae 03 89 be 9a 2b 34 bf 79 2a 01 3e 83 df cb 3e
       -0.2676062 -0.7037903 0.12613858 0.39818963
000270 85 2a 7f bf 21 a3 dd 3f 66 c0 8b bf 4e ea 10 3c
       -0.99674255 1.7315408 -1.091809 0.008844925
000280 6b 69 80 3f 88 a5 c3 be 50 47 0f 3f 56 db c8 bf
       1.0032171 -0.38212228 0.5596819 -1.5691936
000290 ab 3f 46 3f 61 a8 58 3e 59 e6 4e 3e 62 32 69 bd
       0.774409 0.21157981 0.20205058 -0.056932814
0002a0 fb 73 91 3f 27 93 cb 3e f5 6c 30 be 72 5c 19 be
       1.136352 0.39760706 -0.17229064 -0.14976671
0002b0 29 5c 13 bf 10 00 68 be 8c 01 ba be a4 0d 28 be
       -0.575625 -0.22656274 -0.36329305 -0.16411453
0002c0 57 5b 93 3e 35 16 88 bf 0d f2 86 be 12 31 77 bf
       0.28780624 -1.0631777 -0.26356545 -0.9655925
0002d0 37 ff 39 3e 39 b6 02 40 09 29 c7 3e f5 52 5d 3f
       0.18163763 2.042372 0.38898495 0.8645471
0002e0 bf 35 be 3d 39 6a 78 3f d2 60 f4 3f 98 a4 8b be
       0.09287595 0.9703708 1.9092047 -0.27274013
0002f0 1b ca 51 be c4 fa d2 3c 16 43 8b be c5 ae ca be
       -0.20487253 0.02575434 -0.2719962 -0.39586464
000300 69 4b ce 3d 6d c9 94 bf c3 b6 44 bf 20 61 c3 3d
       0.10072977 -1.162397 -0.7684137 0.095400095
000310 41 a0 dc bb 95 45 08 3f a8 47 56 bf f2 47 c8 3e
       -0.006732971 0.53231174 -0.8370309 0.3911739
000320 2c 7e 3e bf 84 70 68 3e ca a7 d8 be 0d 47 60 3f
       -0.74411273 0.22699171 -0.42315513 0.87608415
000330 35 7d 80 3e 9d f8 63 3f b3 15 21 bf 77 6f d6 3f
       0.25095525 0.8905123 -0.62923735 1.6752766
000340 f6 8b 45 3f 23 db c2 be 6b de 40 3f 01 93 69 bf
       0.7716669 -0.38057813 0.7533938 -0.91239935
000350 b3 b1 ab be 55 17 97 bf 7e b2 67 bf 91 81 70 bf
       -0.3353401 -1.1803995 -0.9050673 -0.939477
000360 38 4c 4a bf c6 af 13 be a9 ab 2a bf 3d fa 20 3e
       -0.7902255 -0.14422521 -0.6666818 0.15720458
000370 05 42 06 c0 05 71 57 bf 0f 89 88 bd f0 56 59 3d
       -2.0977795 -0.8415683 -0.06666767 0.053061426
000380 28 76 90 be d0 76 e9 3f 8e 83 2c 3f 23 0a 03 3f
       -0.28215146 1.8239384 0.67388237 0.5118734
000390 b7 96 b3 bd b5 15 99 3f 80 b4 8f 3f f3 ee d2 3e
       -0.08768981 1.195975 1.1226959 0.4119793
0003a0 1e 1a 53 bf 60 90 87 be d0 a8 a7 bf 0f 88 32 bf
       -0.82461727 -0.26477337 -1.3098392 -0.6973886
0003b0 bb 81 08 3f 10 60 9c bf 30 cb 74 be 1c 81 83 bf
       0.53322953 -1.2216816 -0.23905635 -1.0273776
0003c0 82 be a6 3e e3 8c 23 bf 37 1d 85 be d5 ba d4 3e
       0.3256722 -0.6388685 -0.25998852 0.41548792
0003d0 e1 b3 38 bf 6b 5f 18 3f 2c 10 1c 3f 98 fb 1e bf
       -0.72149473 0.59520596 0.60962176 -0.6210265
0003e0 1b af d8 3e 5c f6 bb 3e 54 da d8 bd 9b ce b6 3e
       0.42321095 0.36711395 -0.10588518 0.35704502
0003f0 2b 4f 92 bf 80 f5 cf 3e 76 ab 33 be e3 e9 7f 3f
       -1.143041 0.4061699 -0.17545876 0.9996626

rec.bias_ih_l0 f4 [128]
000000 38 7b 65 3f 61 c5 98 3e e2 3d bb be 7e 18 6b 3c
       0.8964114 0.29838088 -0.3657065 0.014349101
000010 74 f8 cc be 16 d4 74 bf 41 c6 01 bf 0c 57 70 be
       -0.40033305 -0.9563612 -0.50693136 -0.23470706
000020 e3 0c 1d bd ed 7f 93 bd f2 44 f9 be e4 af 3b 3d
       -0.038342368 -0.07202134 -0.48685414 0.04582204
000030 bc 64 e4 be d6 2f b8 be 26 4a c1 be 3a 42 a0 3e
       -0.44608104 -0.35973996 -0.37751883 0.31300527
000040 f0 57 89 3c c8 b1 bf 3d 55 a3 d8 be 46 b2 45 3e
       0.016765565 0.09360081 -0.42312112 0.19306287
000050 85 a2 04 bf e9 da 18 3f 2c 80 45 be 5c c1 c1 be
       -0.51810485 0.5970903 -0.19287175 -0.37842834
000060 e2 68 21 3e 3b 1c ea be ff d0 7d 3e 4d b3 7f 3d
       0.15762666 -0.45724663 0.24786757 0.062426854
000070 55 ea d9 3e 9c cc e3 3d 65 71 a2 be 3c 06 10 3f
       0.42561594 0.111230105 -0.31727138 0.5625951
000080 d0 d6 fa bd ee 38 1e 3f 34 64 3a be 2a c0 23 be
       -0.122480035 0.6180562 -0.18202287 -0.15991274
000090 db 41 40 3e 2d 20 9b be f2 a9 a4 bf 0a 55 fd 3e
       0.18775122 -0.30297986 -1.2864363 0.49478942
0000a0 83 e0 be be 7d e3 77 bf 44 ae 5a be 49 77 d3 3d
       -0.37280664 -0.96831495 -0.2135554 0.10325486
0000b0 6b ce 20 bf 36 6e 66 bd 4d 5e 4d 3f fe 7a 11 bf
       -0.6281497 -0.05625745 0.80222017 -0.56828296
0000c0 fa d2 ac be 20 b1 1f 3f 4e 20 b3 3e 17 47 a0 3e
       -0.33754712 0.62379646 0.34985584 0.31304237
0000d0 ff 80 03 3e 7c 2d 99 3e 7e cb ea be 3d 76 15 be
       0.12842177 0.29917514 -0.45858377 -0.14595886
0000e0 f8 28 2c 3f d5 59 c8 3f 49 f5 01 bd bb b7 8f be
       0.67250013 1.5652415 -0.031728063 -0.28069863
0000f0 27 fb bc bd 82 f7 60 be a8 74 dd 3d 3c ae 68 3d
       -0.09227591 -0.21969417 0.10813266 0.056806788
000100 74 bc 5c be 2c 0e 8f 3e 40 ca 85 3e ec d3 06 be
       -0.21556264 0.279405 0.26130867 -0.1316678
000110 fa 07 f4 be c0 db 33 bf b3 86 d1 3d 20 35 9e 3d
       -0.47662336 -0.70257187 0.1023077 0.077249765
000120 7f 13 82 3e 0a bd 06 be c8 31 37 bf a1 cc 2c bf
       0.254055 -0.1315805 -0.71560335 -0.6749974
000130 39 11 d5 be b6 2f f9 3d c5 0a b5 be f2 0b 16 bf
       -0.41614702 0.12167303 -0.3535978 -0.5861198
000140 39 b8 03 3f 6c d8 ea 3e 90 6a ee bd e5 66 a9 bd
       0.51452976 0.45868242 -0.11641419 -0.08271579
000150 46 06 ad 3d 65 52 5d be a7 43 61 be 02 6e 53 3d
       0.08448462 -0.21613462 -0.21998464 0.051618584
000160 c1 37 8a 3f 9f a5 ae 3d ca 80 1b be 95 05 21 3f
       1.0798265 0.085276835 -0.15185848 0.6289914
000170 9d 1b a6 be cb d5 b6 be 8a 24 6b 3d 8e c7 8b bf
       -0.32442942 -0.35709986 0.057407893 -1.0920274
000180 e4 de b6 3e f5 c7 36 3f 64 84 85 3e de b8 61 3f
       0.35716927 0.7139886 0.2607757 0.8817271
000190 52 5c 97 be 78 16 a7 bc 1d d3 4a 3e 31 32 13 bf
       -0.29562622 -0.020396456 0.19807096 -0.5749846
0001a0 e3 dd 4e be b6 74 c3 be be 39 31 be be 6d 14 bd
       -0.2020183 -0.3817498 -0.17307183 -0.03623747
0001b0 6d 84 77 bd ec 97 c1 3e a7 5a 25 be ad 16 b5 be
       -0.060429025 0.3781122 -0.16147862 -0.35368863
0001c0 c3 43 ac 3e fb 94 f9 3c 5b 31 c7 bc f2 f7 ae be
       0.33645448 0.030466547 -0.024315527 -0.34173542
0001d0 a9 c9 8e 3e 52 a1 59 3e d1 50 87 be d0 63 06 be
       0.2788823 0.21252945 -0.26428846 -0.13124013
0001e0 67 5f 41 3f 2e 0f a0 bf 87 58 82 3f 96 1c 40 be
       0.755362 -1.2504632 1.0183266 -0.18760905
0001f0 d6 a3 36 be a4 96 19 3f 55 f4 e2 be 9d 0a 0a 3d
       -0.17835936 0.59995484 -0.44327036 0.033701528

rec.bias_hh_l0 f4 [128]
000000 3f 9e 63 3f 12 9a da 3e 16 65 d2 be 6d 3f a0 bd
       0.8891334 0.4269567 -0.41092747 -0.078245975
000010 74 d2 05 bf d4 ef 52 bf 43 92 06 bf 26 5f 49 be
       -0.5227425 -0.823972 -0.5256693 -0.19665202
000020 e8 95 32 be a3 ff 39 be 4f 45 09 bf 74 a9 c4 3d
       -0.17439997 -0.18163924 -0.5362138 0.09602633
000030 b2 2a e1 be 1e d3 73 be 55 69 aa be f7 2d c3 3e
       -0.43977886 -0.23811004 -0.33283487 0.38121006
000040 64 36 12 3d 64 41 18 3e cc 4a e3 be 8f 17 49 3e
       0.035696402 0.14868695 -0.44393003 0.19637893
000050 9d 9e 07 bf 1c 1e 19 3f 5b 52 6a be 1c 02 02 bf
       -0.529764 0.5981157 -0.22882979 -0.5078447
000060 37 55 57 3e bf b5 ca be 4c cb ba 3e f3 c7 85 3d
       0.210286 -0.39591786 0.36483228 0.06532278
000070 69 d2 dd 3e 06 34 c9 3d 32 2e a8 be c2 12 01 3f
       0.43324593 0.09824376 -0.32847744 0.5041925
000080 fa 97 ec bd fd 3f 29 3f b4 97 32 be 89 7d 9a bc
       -0.11552425 0.66113263 -0.17440683 -0.018858688
000090 4b 55 07 3e 65 89 d5 be e6 c7 a9 bf 8e c5 18 3f
       0.1321613 -0.41706386 -1.3264129 0.59676445
0000a0 0c ff b5 be aa 5b 5a bf 16 a2 5d be 0f 51 4c 3e
       -0.35546148 -0.8529612 -0.21643862 0.19952796
0000b0 ff db 23 bf 23 b2 12 be cb ad 3a 3f ca 89 e9 be
       -0.6400756 -0.14325766 0.7292144 -0.45612937
0000c0 fa f4 d6 be 79 ae 19 3f 09 60 eb 3e ab 65 34 3e
       -0.41983777 0.6003185 0.45971707 0.17616908
0000d0 f1 8f 8a 3d 77 13 47 3e 59 f5 0a bf 0c 6b 1d be
       0.06765736 0.19441019 -0.5428062 -0.15372866
0000e0 70 39 41 3f f3 b0 d4 3f 3d 15 8f bd 7b 6d c7 be
       0.7547827 1.6616501 -0.06986473 -0.38950714
0000f0 c7 24 a2 bd e1 69 91 be 80 cb 45 3d eb 13 26 3e
       -0.07917171 -0.28401092 0.048289776 0.16218536
000100 c2 8c 37 be 90 56 18 3e 04 6b 78 3e f4 c0 29 be
       -0.17924789 0.14876771 0.24259573 -0.16577512
000110 ee 28 00 bf 64 e9 26 bf ce 53 3e 3d e2 1c f1 3d
       -0.50062454 -0.65199876 0.04646664 0.11773087
000120 2b 1e 00 3e de d7 33 be 12 e1 54 bf f1 78 2e bf
       0.12511508 -0.17562816 -0.8315593 -0.6815329
000130 57 1a c3 be 35 6e 4e 3e d6 a0 64 be ef 4a f4 be
       -0.38106033 0.20159228 -0.22326979 -0.4771342
000140 b8 76 fa 3e 77 2d f2 3e 6d d4 dc bd 3d ec f0 bc
       0.489187 0.47300312 -0.107827045 -0.029409522
000150 ae 9c 19 3e d8 4f 81 be 12 8f ac be b0 5d f9 3d
       0.15001175 -0.25256228 -0.33702904 0.121760726
000160 30 94 86 3f fe c1 f7 3d ca 19 ed bd e0 f0 1e 3f
       1.0513973 0.12097548 -0.115771845 0.62086296
000170 fc 28 9d be 0b 9a af be f0 c7 e8 3d be bd 89 bf
       -0.3069533 -0.34297213 0.1136626 -1.076103
000180 fa 93 a9 3e 1d 11 3e 3f b5 ff bb 3e 8f e5 4a 3f
       0.3312071 0.7424486 0.36718526 0.7925653
000190 6c 25 c4 be d3 9a 9b 39 89 b7 04 3e 70 91 05 bf
       -0.383098 0.00029679257 0.12960638 -0.52175045
0001a0 01 18 a4 be cf 47 c6 be 7b ed 88 be c4 d6 cb bd
       -0.32049564 -0.3872666 -0.26743683 -0.09953073
0001b0 1c 7d 4e be 48 ec bc 3e 0e 63 59 be 84 cb a5 be
       -0.20164913 0.36899018 -0.21229193 -0.32381833
0001c0 53 42 d2 3e c1 64 80 3d f4 32 af bc 54 28 a2 be
       0.41066226 0.06269217 -0.021386601 -0.31671393
0001d0 56 84 bb 3e 2b 2c 7a 3e 32 5f a2 be 37 87 21 be
       0.36624402 0.24430911 -0.31713253 -0.15774237
0001e0 ab 79 44 3f 89 7a 97 bf 99 3c 8a 3f a7 ae 65 bd
       0.7674815 -1.183427 1.0799743 -0.056074765
0001f0 c0 15 45 be fa ef 2d 3f 8d 06 db be 2f f0 a0 bd
       -0.19246578 0.679443 -0.42778435 -0.078583114

fc.weight f4 [36, 128]
000000 c2 54 8d 3d 9f d3 89 bf a2 b5 07 3d ca bf 4e bf
       0.06900932 -1.0767707 0.033132203 -0.80761397
000010 5d d0 a6 bf 72 78 1f bf 8c 28 6a 3f 98 02 83 3e
       -1.3032337 -0.6229316 0.9146812 0.25587916
000020 cc fb b0 3e b5 c3 8e bf 07 2f 2a 3f cb 65 53 3e
       0.34567106 -1.1153475 0.6647801 0.206443
000030 40 20 89 3f 86 75 da 3e 6b 84 db 3e 13 36 b1 bf
       1.0712967 0.42667788 0.42874464 -1.3844627
000040 2d 08 65 3f 1d 0e af be eb 2a 9e 3f 4c fa da be
       0.894656 -0.34190455 1.2356848 -0.42769086
000050 38 29 98 3d c2 74 e9 3f cd c2 3f 3f f6 f6 4d bd
       0.07429737 1.8238757 0.7490662 -0.05028435
000060 93 96 9b 3f 97 f6 a5 bd 22 07 2b 3f d4 f6 ca be
       1.2155327 -0.08103674 0.6680776 -0.3964144
000070 d0 b6 21 3f 6d ac 64 3f d4 fb 3a bd 96 32 21 3f
       0.63169575 0.893256 -0.04565032 0.62967813
000080 81 d3 7b be 7a ea 26 bf 92 f8 55 be be 75 a0 3f
       -0.24592401 -0.6520153 -0.20895603 1.2535932
000090 dd 54 8a bf 3f a0 0e 3f 71 d1 02 3f a5 e3 b3 be
       -1.0807148 0.55713266 0.5110083 -0.35134616
0000a0 03 11 7c be a9 ac 2d 3f 8b 50 0a 40 9d a4 1a 3f
       -0.24615864 0.67841583 2.161166 0.6040743
0000b0 8d 9c f9 3b 5f 64 af bc 26 5c 78 be 92 52 2d 3e
       0.0076175393 -0.021410165 -0.24253902 0.1692603
0000c0 dd a1 9c 3e 94 b0 be 3e fb 1e c8 3e 12 1c 63 3e
       0.30592242 0.37244093 0.39086136 0.22178677
0000d0 61 d8 64 be 17 94 f9 3f 79 25 17 bf 03 59 11 bf
       -0.22348167 1.9498318 -0.59041554 -0.56776446
0000e0 92 77 38 3f 90 82 41 bd fd 83 87 be bc 7a 7f be
       0.7205745 -0.047243655 -0.26467887 -0.24949163
0000f0 a4 b2 8c 3f 2d e9 99 3e f8 8c 0e be d6 58 99 3f
       1.0992017 0.30060712 -0.13920963 1.1980236
000100 9b be 12 bf 33 5e e5 3e d3 1d cf 3e 35 bc 89 3f
       -0.5732209 0.4479843 0.40452442 1.0760561
000110 c7 a8 a1 be 85 bc 8c be 72 dc 2c 3f 05 c6 92 bf
       -0.3157408 -0.2748758 0.6752387 -1.1466681
000120 73 f7 9d 3f 70 72 69 3e 52 bc 77 3f 91 a3 7b bf
       1.234114 0.2279756 0.9677173 -0.9829646
000130 52 78 44 3e cb dc 54 bf 4a a9 1d bf fd 82 dd bd
       0.19186524 -0.83149403 -0.6158644 -0.10816
000140 96 67 4d bf 94 22 bc 3e 4b 98 68 bf 2c 7f 9e 3c
       -0.80236185 0.3674513 -0.9085738 0.01934775
000150 28 a1 8e 3e 33 f9 f3 be fe 2d 8a bf 9a 71 6a bf
       0.27857327 -0.4765106 -1.0795286 -0.9157959
000160 eb ee 70 bf 57 d6 01 c0 ee 9c 74 be 1d 6a 4e bf
       -0.9411456 -2.0287073 -0.23887989 -0.80630666
000170 f1 8a 4d bf 72 d7 9b be 09 24 2e 3f 39 28 73 3f
       -0.8029013 -0.3043781 0.68023735 0.9498325
000180 8e e1 25 3e d9 17 55 3f 17 37 ef be 5d 42 17 bc
       0.16199324 0.83239514 -0.46721718 -0.009232131
000190 ab cb 69 3e d1 b1 55 3f cc 60 8f be 06 27 f7 3e
       0.228316 0.8347445 -0.28003538 0.4827196
0001a0 60 48 ee 3d bd 09 ea be 41 4a 8a 3f 39 f3 69 3f
       0.11634898 -0.45710555 1.080391 0.91386753
0001b0 c9 06 89 3e 25 a7 0d bf ad 0a 0a bf ef a5 31 bf
       0.2676299 -0.5533317 -0.5392254 -0.6939382
0001c0 96 79 08 40 a3 3a 1f be 24 6e 7c 3f af 7f aa 3f
       2.132421 -0.15549712 0.9860556 1.3320216
0001d0 eb b1 11 3f c7 c1 25 bf 55 be 69 be e8 9e 5b 3f
       0.56912106 -0.64748806 -0.22826512 0.85789347
0001e0 bc e9 4e 3d cf 5b 8f 3e d6 f0 7b 3c 8a 40 4d 3f
       0.050515875 0.27999732 0.015377244 0.80176604
0001f0 1d c4 90 3d 07 d1 c3 be 19 03 a9 3d 9c 2c ed be
       0.07068656 -0.38245413 0.08252544 -0.46323097
000200 a5 6c 92 be d8 a0 0e bf 25 35 59 be a4 f3 a0 3e
       -0.28598514 -0.5571418 -0.2121168 0.31435883
000210 94 23 00 bf 94 b2 19 bf 95 b3 c8 3d 5f 3d e9 3e
       -0.5005429 -0.60038114 0.097998776 0.45554635
000220 2a 5a eb 3d c8 87 f4 3e 50 c2 e8 be 83 b5 eb 3e
       0.11491807 0.47759843 -0.4546075 0.4603692
000230 95 4c 5c 3e 95 0f 53 bf c5 71 d8 be 44 81 ae 3e
       0.21513589 -0.8244565 -0.422743 0.34082997
000240 d3 ff 14 bf 1d f8 e6 bd 69 8c 19 3f ba e7 61 be
       -0.58202857 -0.112777926 0.59979874 -0.22061053
000250 b4 4b a7 be 43 8c 1c 3f 4b e7 b3 bd 4a 9c 53 bf
       -0.32674944 0.6115152 -0.0878435 -0.82660353
000260 ae 02 32 be ec 9e 71 be de c6 6a 3e 39 70 79 be
       -0.17383835 -0.2359578 0.22927424 -0.24359216
000270 26 0c 23 3e 79 c0 c5 3e 83 ad 27 be e4 d4 87 be
       0.15922603 0.38623407 -0.16374783 -0.2652961
000280 29 d4 80 be 59 b6 ae 3e 9b 7e 05 3e bd 2d f8 3d
       -0.25161865 0.34123495 0.13036577 0.12118099
000290 5f a0 3f bf 25 50 b9 3e 30 7f 0a bf 8c 89 a4 bd
       -0.7485408 0.36193958 -0.5410032 -0.080340475
0002a0 26 7a 34 3f 5c ae 64 3e f5 a7 eb be 3d bd cb be
       0.70498884 0.22332138 -0.4602658 -0.39792815
0002b0 ac d7 f2 bd c6 aa 1e bf 60 68 18 3e c7 7b 86 3d
       -0.118575424 -0.6197933 0.14883566 0.065665774
0002c0 6d 56 03 be f8 00 bb 3c 8b 6f a6 3e 00 57 81 be
       -0.12825938 0.02282761 0.32506976 -0.25261688
0002d0 55 6a 6f 3e 9a d0 31 bd eb f3 92 be 02 85 2c be
       0.23380406 -0.04341183 -0.2870172 -0.16847613
0002e0 a8 c1 dc 3e 95 9b 46 3e 65 4b 42 3f ca 91 2a be
       0.43116498 0.19395287 0.7589629 -0.16657177
0002f0 7f 01 ca 3e d7 dc 0a bf 1e b2 83 3e 52 54 ab 3d
       0.39454266 -0.54243225 0.2572183 0.08365692
000300 7d 7e 19 bf 8b 4c b6 bc bb 0c 68 bd b6 66 4e be
       -0.5995863 -0.022253295 -0.056652766 -0.20156369
000310 17 3e ff be b4 02 71 3e 4c 23 17 bf 2f a7 01 bc
       -0.49852058 0.23536187 -0.59038234 -0.007913395
000320 71 14 f2 3e c9 0f 7d 3e 40 7a 2b 3f e3 7e d0 bd
       0.4728122 0.24713053 0.66983414 -0.10180452
000330 80 43 5d 3e a7 09 dd be f3 61 14 bd 00 5a b1 be
       0.2160778 -0.43171427 -0.036226224 -0.34638977
000340 b5 55 2d be ed f9 bb 3c 4d 6f 96 bd 45 7a 33 3d
       -0.16927226 0.022946322 -0.07345448 0.043817777
000350 a4 1c 58 bc a3 a7 6d be 66 37 96 be 8c 8e c0 be
       -0.013190422 -0.2320848 -0.2933914 -0.37608755
000360 67 a6 1d 3c 2a 1d 0f 3f 59 1b fe be 36 65 89 be
       0.009622193 0.55903876 -0.4963024 -0.2683503
000370 19 58 c2 bd 81 b7 91 3e 1e 84 cc 3e 7b 43 ec be
       -0.094894595 0.28460315 0.39944547 -0.46145234
000380 1d 07 2f be 7d e5 a1 3e 68 92 e7 bd c6 fc 4c 3e
       -0.17092557 0.31620398 -0.11307222 0.200183
000390 1b 40 96 3e 26 04 02 3f c8 0e ff 3e 3e 2a 0c 3f
       0.29345784 0.5078758 0.49815965 0.54751956
0003a0 b8 5b d0 be 8a c8 8b be 59 9c b1 be 44 ca 5b 3e
       -0.40694976 -0.27301437 -0.34689596 0.21463877
0003b0 8a c4 57 3f b4 7d 28 3e 3e 15 85 3e 94 cf 00 be
       0.8428427 0.16454202 0.2599277 -0.12579185
0003c0 2d 0f 2c 3d e1 b5 a4 3e 2e 13 8e bd 06 a7 96 be
       0.04200666 0.32170013 -0.06937252 -0.29424304
0003d0 e3 61 b0 3d ee 2f bc 3d 8e e6 07 3f f5 bb bb bd
       0.086124204 0.09188829 0.53086174 -0.09166709
0003e0 0a 2c 5b 3e c5 81 24 3f 92 f5 ae 3e a3 df 4f be
       0.21403518 0.6426051 0.3417173 -0.20300154
0003f0 71 d7 81 be 30 96 a9 bd d9 94 05 3e 82 87 75 3e
       -0.2535968 -0.08280599 0.13045062 0.23977473

sum f4 [36, 128]
000000 7a 10 a6 41 8d ed 17 42 d7 af ba 41 25 e3 1f 42
       20.758045 37.981983 23.33586 39.97182
000010 58 67 10 42 a0 af 9a 41 cd e5 d3 41 9e 15 95 42
       36.10092 19.335754 26.487207 74.54222
000020 61 12 c8 41 9e 1a ca 41 46 dd f6 41 54 ab c1 41
       25.008974 25.262997 30.858044 24.208656
000030 8f 5a 8b 42 46 13 c0 41 47 b4 db 41 8a aa f2 41
       69.67687 24.00941 27.463026 30.333271
000040 e1 b8 94 41 80 41 2d 42 3a 21 2c 42 e9 79 c6 41
       18.590273 43.313965 43.032448 24.809526
000050 94 5a 91 41 24 52 8d 41 0a db ad 41 33 5d 17 42
       18.169228 17.665108 21.731953 37.841015
000060 3f 3e 61 42 0f f4 51 42 71 ff b5 41 a9 5e d5 41
       56.310787 52.48834 22.749727 26.67122
000070 c8 1a 13 42 57 2f 72 41 46 00 11 42 5a 24 d9 41
       36.776154 15.136558 36.250267 27.14275
000080 2b 28 14 42 20 61 ea 41 9f f7 fc 41 65 6e 85 42
       37.039227 29.297424 31.620909 66.715614
000090 d8 32 e9 41 42 d5 0a 42 3f 77 23 42 e4 7b be 41
       29.149826 34.70826 40.86645 23.810493
0000a0 22 32 25 42 f9 af 81 42 58 ae b0 41 2e 0d 10 42
       41.298958 64.8437 22.085129 36.01287
0000b0 e1 a3 ac 42 15 a7 7d 41 db 85 20 42 8b 59 7a 42
       86.320076 15.8532915 40.13072 62.587444
0000c0 4d 8a f2 41 6d 0d d1 41 37 d6 c3 41 6c fb 9c 41
       30.31753 26.131556 24.479597 19.622765
0000d0 ec 82 e5 41 65 f6 de 41 9a 17 36 42 e7 1a 38 42
       28.688927 27.87031 45.52305 46.02627
0000e0 60 d7 ba 41 a0 f9 e9 41 20 b6 c9 41 49 bb b0 41
       23.355164 29.246887 25.213928 22.091448
0000f0 fc 7d 46 41 94 4b 4d 42 39 96 47 42 e3 ad 7f 42
       12.405758 51.323807 49.8967 63.91981
000100 7a 2a e5 41 9d ac a5 41 65 ee a7 41 dd a6 ad 41
       28.64574 20.709284 20.991404 21.706476
000110 23 22 9d 41 ac 37 3e 42 50 6b 5c 41 e9 a1 2b 42
       19.641668 47.554367 13.776199 42.908115
000120 eb 81 e2 41 84 bf 28 42 eb c7 92 41 0b b6 cb 41
       28.313437 42.187027 18.347616 25.463888
000130 e6 6d 17 42 c0 87 01 42 61 69 8d 41 24 67 dc 41
       37.857323 32.38257 17.676455 27.550362
000140 a8 b3 5e 42 97 b1 1d 42 f1 dd a8 41 7b f7 fe 41
       55.675446 39.423428 21.10837 31.87084
000150 55 2a cf 41 51 8e 9f 41 68 d6 c6 41 24 14 e4 41
       25.89567 19.94449 24.85469 28.509834
000160 fe 08 47 42 3d 4c 60 42 14 30 1d 42 27 ef f0 41
       49.75878 56.07445 39.29695 30.116774
000170 78 a3 d1 41 a3 7a b3 41 94 a2 98 41 7b 72 49 42
       26.204819 22.434881 19.079384 50.361797
000180 07 a7 12 42 c9 b0 c9 41 72 f0 67 42 6d 86 f0 41
       36.663113 25.21132 57.98481 30.065638
000190 59 b0 e2 41 8b 92 57 41 82 16 31 42 6d ba 51 42
       28.336107 13.473277 44.27198 52.432056
0001a0 74 0e b2 41 f7 df a8 41 fb 7d 2c 42 78 21 b0 41
       22.257057 21.109358 43.123028 22.016342
0001b0 ce 95 91 41 71 1e c4 41 b9 b7 8f 41 95 4f 81 41
       18.198147 24.514864 17.964708 16.163858
0001c0 b4 b4 e6 41 5e 75 2d 42 ca 88 73 41 79 82 b8 41
       28.838234 43.364616 15.220896 23.063707
0001d0 83 0b eb 41 cf 08 bc 41 44 cb e6 41 00 8f af 41
       29.380621 23.504301 28.84925 21.944824
0001e0 6b 6e d0 41 6e b3 a0 41 97 fb 20 42 8a 73 00 42
       26.053915 20.087612 40.245693 32.11283
0001f0 01 ad b1 41 1a 73 d8 41 84 3b 2f 42 5c ad 85 42
       22.209475 27.056202 43.80812 66.83859
000200 8b 0a 0c 44 e3 7b 37 44 8f 0d 08 44 ce c8 bb 43
       560.16473 733.9357 544.21185 375.5688
000210 29 e9 d0 43 dc fe eb 43 24 cc 98 43 8c 4d 5c 44
       417.82156 471.9911 305.59485 881.2117
000220 6f 61 97 43 ca c0 7f 43 9c 54 02 44 78 f8 04 44
       302.7612 255.75308 521.322 531.8823
000230 db 0b 64 44 3e cb 4f 44 ee b1 b6 43 89 d5 ef 43
       912.18524 831.17566 365.39008 479.66824
000240 0e 00 16 44 2b 40 0d 44 37 a7 c4 43 16 97 15 44
       600.00085 565.0026 393.30637 598.3607
000250 7a e5 cc 43 8f 7e 0b 44 13 a9 08 44 38 70 1f 44
       409.7928 557.9775 546.6418 637.7534
000260 86 ae c1 43 7d db 24 44 c7 e5 c6 43 2c 1c e2 43
       387.36346 659.4295 397.79514 452.2201
000270 78 88 af 43 d9 26 03 44 36 0b 1f 44 b7 8b f4 43
       351.06616 524.607 636.1752 489.09152
000280 d4 c3 bd 43 b3 6e 18 44 18 0f 32 44 68 20 12 44
       379.5299 609.7297 712.23584 584.50635
000290 ee 20 07 44 9f 81 f1 43 18 b0 5a 44 83 9e 24 44
       540.5145 483.01266 874.75146 658.47675
0002a0 20 3f 51 44 eb e0 0e 44 63 2c f0 43 45 56 58 44
       836.9863 571.51434 480.34677 865.34796
0002b0 30 d1 a6 43 f4 a6 0d 44 dc 53 ce 43 54 0f ad 43
       333.63428 566.60864 412.65515 346.11975
0002c0 03 20 dc 43 09 68 14 44 97 7e 99 43 0b 44 11 44
       440.2501 593.62555 306.98898 581.0632
0002d0 65 6e 4c 44 c2 ea 00 44 07 e9 23 44 3e 15 89 43
       817.7249 515.6681 655.64105 274.16595
0002e0 77 8b e9 43 4b 20 0b 44 60 06 10 44 42 26 86 43
       467.08957 556.5046 576.0996 268.2989
0002f0 3a 9a 11 44 37 3c 1b 44 ef b2 eb 43 18 40 05 44
       582.4098 620.94086 471.39792 533.00146
000300 30 24 c3 43 9c ae ec 43 ce 10 2c 44 4a 77 01 44
       390.2827 473.36414 688.2626 517.8639
000310 2a 12 bf 43 a6 d9 1a 44 b8 f6 a0 43 7d a2 c4 43
       382.1419 619.40076 321.9275 393.26944
000320 27 57 90 43 6e c1 81 44 6f 01 96 43 c7 ae bc 43
       288.68088 1038.0447 300.0112 377.36545
000330 ab d8 03 44 73 2a 2a 44 62 8f 0c 44 ee 38 07 44
       527.38544 680.66327 562.24036 540.8895
000340 7f a9 18 44 9b 3c be 43 72 21 83 44 5b fb 00 44
       610.6484 380.47348 1049.0452 515.9274
000350 9d 4d 3e 44 0c 76 fb 43 59 52 4f 44 24 0b fb 43
       761.2127 502.92224 829.2867 502.08704
000360 14 01 e4 43 1d 02 65 44 37 44 dc 43 8d 27 a3 43
       456.00842 916.033 440.53293 326.309
000370 b7 dc 15 44 f7 16 3f 44 a2 85 89 44 d4 05 23 44
       599.44867 764.3588 1100.176 652.09106
000380 19 76 a2 44 ee e6 3d 44 2a 9e e6 43 e8 e8 06 44
       1299.6906 759.6083 461.23566 539.63916
000390 65 0a 40 44 93 d6 bd 43 ef 47 ef 43 1c da 17 44
       768.1624 379.67636 478.56198 607.40796
0003a0 31 95 74 43 2f 34 c5 43 7a 20 da 43 58 13 de 43
       244.58278 394.40768 436.25372 444.15112
0003b0 09 3a af 43 ce 7a ee 43 ad d9 ec 43 64 16 ba 43
       350.4534 476.9594 473.7006 372.17493
0003c0 20 5e e5 43 bd 91 02 44 38 03 03 44 94 0a 25 44
       458.73535 522.27716 524.0503 660.1653
0003d0 13 2f b0 43 50 05 0f 44 55 23 10 44 c6 27 16 44
       352.36777 572.083 576.55206 600.62146
0003e0 c7 ce b3 43 c3 c3 e2 43 83 a7 36 44 68 47 21 44
       359.61545 453.5294 730.6174 645.1157
0003f0 eb e3 f6 43 53 10 da 43 20 26 b3 43 92 c5 69 44
       493.7806 436.12753 358.29785 935.08704

sum f4 [128, 128]
000000 9a d6 8f 43 d9 98 7e 43 9d 93 31 43 34 8a bc 43
       287.67657 254.59706 177.57661 377.0797
000010 fa 89 be 43 09 f4 70 43 3f df 2e 43 ab bd 9c 43
       381.07794 240.95326 174.87206 313.48178
000020 94 f0 39 43 c6 72 1e 42 b3 7f 92 43 f7 70 45 44
       185.93976 39.612083 292.99765 789.7651
000030 60 38 55 43 a3 14 42 43 ec 4b 40 43 ee 47 69 43
       213.22021 194.08061 192.29657 233.28098
000040 df dd 1e 43 a9 76 c5 42 04 0a 6b 42 c6 74 89 43
       158.86668 98.73176 58.75978 274.9123
000050 33 10 25 43 56 1b 22 43 d1 be 06 43 a0 6d 20 43
       165.06328 162.10678 134.74538 160.42822
000060 07 e8 0b 43 1c da 88 43 94 dc df 43 28 80 21 43
       139.90636 273.70398 447.72327 161.50061
000070 3a 97 85 43 79 4a 02 44 d7 2e 6d 43 79 e1 5f 43
       267.18146 521.16364 237.18297 223.88075
000080 4b 53 0f 43 04 49 2a 43 0f 90 98 43 c3 65 b3 42
       143.32536 170.28522 305.12546 89.69875
000090 e5 03 aa 43 7e 2f 8e 42 19 e5 1a 44 39 8a 3d 43
       340.03043 71.09276 619.57965 189.53993
0000a0 9f 6b 68 43 72 e8 3d 43 79 b1 2d 43 fc 58 95 42
       232.4204 189.90799 173.69325 74.6738
0000b0 c0 14 36 43 11 db 80 43 d7 3e a2 43 50 50 0d 43
       182.08105 257.71146 324.49094 141.31372
0000c0 0b e1 d9 42 89 bc 20 43 79 25 42 43 6c 71 6e 43
       108.93954 160.73647 194.14638 238.44305
0000d0 6f e5 86 43 47 e0 60 43 87 1e fd 42 f9 d4 b5 42
       269.79245 224.87608 126.55962 90.91596
0000e0 f7 20 15 43 6f 65 7d 43 a8 00 38 43 50 8b 1e 43
       149.12877 253.39622 184.00256 158.54419
0000f0 91 98 a9 42 d7 a7 c7 42 0f 13 08 43 1e d4 65 43
       84.79798 99.82781 136.07445 229.82858
000100 f7 b1 68 43 97 e7 07 44 26 09 2e 43 24 9e 09 43
       232.69518 543.6186 174.03574 137.61774
000110 40 93 c0 42 38 64 3f 43 d8 3b e4 43 a3 68 83 43
       96.2876 191.39148 456.46753 262.81747
000120 40 4e 35 43 2b 52 a3 42 27 b5 17 43 6e 98 06 43
       181.30566 81.660484 151.70763 134.59543
000130 77 9c d1 42 6b de 69 43 6e a6 01 43 ee c8 0f 43
       104.805595 233.86882 129.65012 143.78488
000140 18 90 15 43 30 c6 6d 43 fd 0a de 43 96 5a 76 43
       149.56287 237.77417 444.08585 246.35385
000150 2c d3 a8 43 c1 22 14 43 14 eb 27 43 eb 09 8d 43
       337.64978 148.13576 167.91827 282.07748
000160 3f 21 10 43 75 4b b1 43 3c 12 4f 43 11 a8 dd 42
       144.12987 354.5895 207.07123 110.828255
000170 1c 41 11 43 4d 7b 40 43 58 c4 ae 42 8e 88 28 44
       145.25433 192.48164 87.383484 674.13367
000180 5f 56 a4 42 e8 a2 98 43 7e 0e 15 43 b7 07 91 42
       82.16869 305.2727 149.05661 72.51507
000190 0e aa cd 42 96 65 b3 42 60 c9 90 42 ea d5 37 43
       102.83214 89.69841 72.39331 183.8356
0001a0 3f bd a0 43 5e f8 ba 42 1b dd 93 43 00 b7 c3 43
       321.4785 93.48509 295.7274 391.4297
0001b0 f2 0f 30 43 0f 92 7c 43 fc 09 8c 43 80 e1 8f 43
       176.06229 252.57054 280.078 287.76172
0001c0 8a c6 2c 43 24 e0 8d 43 dc 8d 2f 43 de 7f 19 43
       172.77554 283.7511 175.55414 153.49948
0001d0 6f fa 32 43 e6 86 74 43 d5 40 19 42 d2 a9 88 43
       178.97826 244.52695 38.313313 273.32672
0001e0 6d 83 0a 43 25 a5 42 43 3b 3d fc 42 4b 26 ff 43
       138.51338 194.6451 126.11959 510.29916
0001f0 99 6f 00 43 0a 29 fa 42 fa 82 e8 42 8e a2 d9 42
       128.43593 125.080154 116.25581 108.81749
000200 68 20 88 43 4b 1a d8 42 53 f4 90 42 79 64 24 43
       272.25317 108.05135 72.477196 164.39247
000210 05 ab aa 42 02 f6 35 43 c8 56 d6 42 10 d6 aa 43
       85.33402 181.96097 107.169495 341.67236
000220 3b 81 ce 42 02 a1 9d 41 b2 42 f9 42 55 4b d6 42
       103.2524 19.703617 124.630264 107.14713
000230 11 ee 46 43 b4 7a 50 42 4b be 93 42 01 9b 64 42
       198.92995 52.119827 73.871666 57.15137
000240 9d 4a 43 42 69 8a 06 43 12 b0 bc 42 88 93 4b 43
       48.822865 134.54066 94.34389 203.5763
000250 a2 5d c4 42 cd eb aa 43 a6 e4 6c 43 99 35 37 43
       98.18288 341.8422 236.89316 183.20937
000260 d5 ad 5a 43 f5 79 00 43 a2 0e a9 42 c7 63 71 43
       218.67903 128.4764 84.52858 241.38976
000270 00 0d d1 42 8d 5e 9d 42 cf 37 72 43 2d 34 ad 42
       104.52539 78.68467 242.218 86.601906
000280 f7 d8 f1 42 54 17 3d 43 14 21 b7 43 39 7b 93 43
       120.92376 189.09113 366.25842 294.96268
000290 71 72 73 43 a1 b6 a9 42 d9 b3 15 43 c2 e1 2c 43
       243.44704 84.8567 149.70253 172.88187
0002a0 10 38 7a 43 d7 0e 8c 42 04 b9 d7 42 86 86 09 43
       250.219 70.028984 107.86136 137.52548
0002b0 d8 eb 3b 43 c2 ff 48 43 00 42 47 43 a6 68 ac 42
       187.92126 200.99905 199.25781 86.20439
0002c0 a4 b6 9a 43 68 5e cd 42 2a 12 0b 43 6b 10 83 42
       309.42688 102.68439 139.07095 65.53207
0002d0 de 9b f8 42 29 c5 08 43 2e de 8a 42 cc 35 80 42
       124.30443 136.77016 69.433945 64.10507
0002e0 45 47 90 43 9f 4d 02 44 c3 e8 98 42 b3 57 43 43
       288.5568 521.2128 76.45461 195.34258
0002f0 cd dc 02 43 65 8c 11 43 75 9d 87 43 ca a9 f0 43
       130.8625 145.54842 271.23013 481.32648
000300 36 2a af 42 27 b9 aa 42 32 f3 49 43 60 f5 b8 43
       87.58244 85.361626 201.94998 369.917
000310 36 70 37 43 71 0a 07 43 18 e0 bf 42 4a 4a 9a 42
       183.43832 135.04079 95.93768 77.145096
000320 20 69 26 43 56 be 66 42 71 b7 49 43 f6 8d 94 42
       166.41064 57.685875 201.71657 74.27727
000330 57 87 00 43 62 91 72 43 49 31 8a 42 23 f7 1b 43
       128.52867 242.5679 69.09626 155.96538
000340 08 2c 95 43 8f da 61 42 19 e1 ee 43 25 a2 24 42
       298.344 56.463436 477.75858 41.158344
000350 0c db 0a 43 90 5f 67 43 5d 7f a5 43 29 b2 09 43
       138.85565 231.37329 330.99503 137.69594
000360 1b 72 17 43 95 ba f5 42 15 87 90 43 c1 b1 1a 43
       151.44572 122.86442 289.05533 154.69435
000370 29 6d 24 43 ed d0 61 43 ad a8 96 43 87 0c 20 43
       164.4264 225.81612 301.31778 160.04893
000380 3e 46 1a 42 4a 7a ab 42 b4 8d 98 43 0f 12 03 43
       38.568596 85.738846 305.10706 131.07054
000390 8d dd f0 42 20 84 4b 42 78 1c 25 43 d3 70 5f 43
       120.43272 50.87903 165.1112 223.44072
0003a0 87 36 82 43 01 50 33 43 fb 74 eb 43 37 fc f5 42
       260.426 179.31252 470.9139 122.99261
0003b0 05 4e 17 43 36 43 e9 42 28 f4 93 43 b8 38 48 43
       151.30476 116.63127 295.90747 200.22156
0003c0 aa a4 a5 42 64 66 f7 42 a8 24 ac 42 09 fe 64 43
       82.82161 123.69998 86.071594 228.99232
0003d0 d6 49 59 43 45 ec 11 43 f0 5d c9 42 6b 24 3f 43
       217.28842 145.92293 100.68347 191.14226
0003e0 ae be be 42 b9 b5 54 43 e5 09 90 42 53 0b 34 43
       95.37242 212.70985 72.019325 180.04424
0003f0 18 41 34 43 1e e9 ba 43 c2 96 8d 42 df 3a 28 43
       180.25427 373.82123 70.79445 168.22997
